CustomWakeWord/gladose.tflite (tflite, 206748 bytes, 9 tensors)

Const_1 f4 [32]
0	0xbcd42be4	-0.025899835
1	0xbbc6d693	-0.0060680597
2	0x3c631a3c	0.013861235
3	0x3c784ab3	0.015154528
4	0x3c964ffa	0.018348683
5	0x3b0afb8f	0.002120707
6	0x3ba96ea5	0.0051706606
7	0xbca349fc	-0.01993274
8	0x3b0932ee	0.0020934897
9	0x3c3ea3d4	0.011635739
10	0xbc88fa37	-0.016720874
11	0x3bdb6ed4	0.0066965614
12	0xbbb6e84f	-0.0055818926
13	0x3b3b0c56	0.0028541288
14	0xbb07a8c9	-0.002069997
15	0x3cc89555	0.02448527
16	0x3cc03924	0.023464747
17	0x3c651e6a	0.013984302
18	0x3c52d630	0.012868449
19	0xbc4947ad	-0.012285155
20	0xbc0ae34d	-0.008477044
21	0x3c0d1703	0.008611443
22	0x3be43f77	0.0069655734
23	0xbca7d91b	-0.020489266
24	0xbc9bede8	-0.019034341
25	0xbc95e9bb	-0.018299928
26	0x3ba39515	0.004992137
27	0xbca7d851	-0.02048889
28	0x3c793ad5	0.015211781
29	0x3c0c4c9f	0.00856319
30	0x3c36f5bd	0.011166987
31	0xbc28c983	-0.01030195

Const_2 f4 [32]
0	0x3f840b36	1.0315921
1	0x3f7a1ca4	0.9769995
2	0x3f83408c	1.0254073
3	0x3f7cf2c6	0.9880794
4	0x3f7f8659	0.99814373
5	0x3f7d6840	0.989872
6	0x3f7f8fb0	0.99828625
7	0x3f7959ae	0.97402465
8	0x3f832d92	1.0248282
9	0x3f7b6c50	0.98212147
10	0x3f83f032	1.0307677
11	0x3f7c489e	0.98548305
12	0x3f7fd734	0.9993775
13	0x3f83aff8	1.0288076
14	0x3f7c47cc	0.98547053
15	0x3f7a101e	0.9768084
16	0x3f7f5475	0.99738246
17	0x3f84147c	1.0318751
18	0x3f7e965d	0.99448186
19	0x3f8383c7	1.027459
20	0x3f80eb43	1.0071796
21	0x3f7d4af9	0.98942524
22	0x3f7f1156	0.9963583
23	0x3f800659	1.0001937
24	0x3f7bac34	0.98309636
25	0x3f7c6736	0.9859499
26	0x3f7f8c65	0.998236
27	0x3f7c36f9	0.9852138
28	0x3f7bf3e8	0.98419046
29	0x3f86357c	1.0485072
30	0x3f813be3	1.0096401
31	0x3f7d85af	0.9903211

Const_3 f4 [32]
0	0x3c1e374a	0.009656737
1	0xbcaaa6bc	-0.020831458
2	0x3cd59591	0.026072295
3	0xbad6b8bb	-0.0016381958
4	0x3b26f8ad	0.0025477812
5	0xbba146d9	-0.004921776
6	0x3d00ebdc	0.031474933
7	0xbc4394ac	-0.011937302
8	0x3c6b1d1d	0.014350203
9	0xbc8e2550	-0.017351776
10	0x3d257aa9	0.04040018
11	0xbcab9cb5	-0.020948747
12	0x3ab2bf42	0.0013637322
13	0x3c27aaf8	0.010233633
14	0xbc8d6bed	-0.017263377
15	0x3c2ecdd5	0.010669191
16	0x3c63f6c7	0.013913817
17	0x3c218405	0.009858136
18	0xbc841119	-0.016121434
19	0x3bd33930	0.0064460263
20	0xbbec6528	-0.007214207
21	0xb9e98a6e	-0.0004454436
22	0xbc2f39b2	-0.010694908
23	0xbb246e1f	-0.0025090051
24	0xbc3ae934	-0.011408139
25	0xbc47989b	-0.01218238
26	0x3c4307bb	0.011903699
27	0xbc840b6e	-0.016118731
28	0xbce86acc	-0.028371237
29	0x3c3b5329	0.011433401
30	0xbb0ed9f7	-0.0021797398
31	0xbc531970	-0.012884483

Const_5 f4 [32]
0	0xbd75d3a3	-0.060016286
1	0x3e08e656	0.13369116
2	0x3dbb83ff	0.09156036
3	0x3de08b46	0.10964064
4	0x3def0511	0.11670888
5	0xbde19593	-0.11014857
6	0xbd163631	-0.036672775
7	0xbc4a7d32	-0.01235895
8	0xbd087329	-0.03331295
9	0xbd8a0fa6	-0.06741266
10	0x3e249d36	0.16075596
11	0xbd600ffb	-0.05470274
12	0xbd8491fd	-0.064731576
13	0x3d74cd66	0.059766196
14	0x3dbc8974	0.092059046
15	0xbe299405	-0.16560371
16	0x3d9400fe	0.07226752
17	0x3d0d2c4f	0.034466084
18	0xbdab088b	-0.08351239
19	0xbd5b2776	-0.05350443
20	0xbdc216bd	-0.09476993
21	0x3cef9f70	0.02925083
22	0x3e2b61ac	0.16736478
23	0xbc917cb9	-0.017759668
24	0x3d5183db	0.051151138
25	0xbd9efa94	-0.07762638
26	0x3cd0e48a	0.0254996
27	0x3e088b1a	0.13334313
28	0x3e20e50c	0.15712374
29	0x3e076c7e	0.1322498
30	0x3c7b751e	0.015347747
31	0xbcd90f53	-0.026496565

Const_6 f4 [32]
0	0x3f9d5427	1.2291306
1	0x3fb51ade	1.4148824
2	0x3fa06ef6	1.2533863
3	0x3f8778d4	1.0583749
4	0x3f814ad1	1.0100957
5	0x3f785517	0.97004837
6	0x3f7c3bbe	0.9852866
7	0x3f80825c	1.0039783
8	0x3f9243c8	1.1426935
9	0x3f80a71a	1.0050995
10	0x3f8e4d41	1.1117326
11	0x3f8abd52	1.0839026
12	0x3f82b686	1.0211952
13	0x3f84e501	1.0382386
14	0x3f8431da	1.0327713
15	0x3f9dc954	1.2327065
16	0x3f7c0ca2	0.98456776
17	0x3f77641a	0.9663712
18	0x3f9fc0ab	1.2480673
19	0x3f9e69f4	1.2376084
20	0x3f85a42c	1.0440726
21	0x3f7edea3	0.99558467
22	0x3fac6c87	1.347062
23	0x3f9c3b52	1.2205603
24	0x3f8dc38d	1.1075302
25	0x3f816754	1.0109658
26	0x3f9e405d	1.2363392
27	0x3f93cf41	1.1547624
28	0x3f8222a1	1.0166818
29	0x3f82a29c	1.0205874
30	0x3fa0e5ff	1.2570189
31	0x3f820270	1.0156994

Const_7 f4 [32]
0	0x3e68b72b	0.22726123
1	0x3e9eaf70	0.30993223
2	0x3e75889b	0.23977892
3	0x3caa375e	0.020778354
4	0x3be1bc6a	0.006888916
5	0xbd1f9700	-0.038962364
6	0xbc775ff0	-0.015098557
7	0x3a6dd8e5	0.00090731523
8	0x3dafbb94	0.085806996
9	0x3c703a7e	0.014662383
10	0x3d9e39c2	0.0772586
11	0x3d3e1402	0.0464058
12	0x3c3e5e1b	0.011619116
13	0x3d3344d9	0.04376683
14	0x3d84fc78	0.06493467
15	0x3e712c8f	0.23552154
16	0x3b8393b3	0.00401541
17	0xbd583cac	-0.052792236
18	0x3e709578	0.23494518
19	0x3e7536d5	0.23946698
20	0x3d1c148c	0.038105533
21	0xbc0b68d4	-0.00850888
22	0x3e8e856a	0.27836162
23	0x3e6edcc2	0.233264
24	0x3d82936a	0.06375773
25	0x3c33d904	0.0109770335
26	0x3e748357	0.23878227
27	0x3ddd1971	0.10795868
28	0x3bb48d6f	0.0055100243
29	0x3cccad5c	0.024985008
30	0x3e7f8b56	0.24955496
31	0x3cd994e6	0.026560258

MatMul f4 [32, 1536]
0	0x3ba11eb2	0.0049169892
1	0x3c4577e6	0.012052512
2	0xbdc1b889	-0.094590254
3	0x3b69d811	0.0035681764
4	0x3d2b6cdc	0.041851863
5	0xbbf5f39e	-0.007505848
6	0x3c60c572	0.01371895
7	0xbd42b0ee	-0.047532015
8	0xba1dfccb	-0.0006026744
9	0xbd187ebf	-0.03723025
10	0x3b824127	0.003975052
11	0xbd00e77c	-0.03147076
12	0xbc32d665	-0.010915373
13	0xbc597067	-0.013271428
14	0x3c49c01b	0.012313868
15	0xbc505086	-0.012714511
16	0x3b5338ee	0.0032229978
17	0x3d7e4ef9	0.062087033
18	0x3cf4efbf	0.029899476
19	0xbb0a99ed	-0.0021148876
20	0xbc5232e1	-0.012829513
21	0xbb54d3be	-0.003247484
22	0xbca5aea5	-0.020224879
23	0xbcc9ee19	-0.024649667
24	0x3afe7bef	0.0019415597
25	0x3cd2d6c1	0.025737168
26	0x3c2a998c	0.010412585
27	0xbbf793fe	-0.007555484
28	0xbc5903c6	-0.013245529
29	0x3b9543a7	0.004555184
30	0x3a90bf17	0.0011043277
31	0x3cf76d39	0.030203449
32	0x3b5d97ae	0.0033812332
33	0xbd94df45	-0.07269148
34	0xbd16bbd1	-0.03680021
35	0xbcf08f4f	-0.02936521
36	0x3a56cc1d	0.00081938674
37	0x3d05a5ac	0.0326287
38	0xbb25348e	-0.0025208327
39	0x3c61fa2c	0.013792556
40	0xbd0cea41	-0.03440309
41	0x3cab3a63	0.020901864
42	0x3c417dbe	0.011809764
43	0xbcbb955d	-0.02289837
44	0xbc98bcf6	-0.018644791
45	0xbce516e5	-0.027965019
46	0xbc2a8503	-0.010407689
47	0xbbb0d081	-0.0053959494
48	0xbbaf98d9	-0.005358797
49	0x3d77e0a8	0.060516983
50	0x3a3d5855	0.00072229403
51	0x3c8a8997	0.016911311
52	0x391f4c7e	0.00015191917
53	0x3cca5a6c	0.02470132
54	0xbb722a8d	-0.0036951632
55	0x3c7609f0	0.015017018
56	0xbcb67da5	-0.022276709
57	0xbc57a2bf	-0.01316136
58	0xbba602cc	-0.0050662514
59	0x3c99ce81	0.018775227
60	0x3a35c929	0.0006934577
61	0xbbc2d297	-0.0059455144
62	0x3cf400ea	0.029785592
63	0xbc03b4bd	-0.008038697
64	0x3ccedf0a	0.025252838
65	0x3cea2801	0.028583528
66	0x3d0e1e6f	0.034696992
67	0xbce011dd	-0.027352268
68	0x3bde614e	0.006786502
69	0x3d0561d3	0.032563996
70	0xbd085527	-0.033284333
71	0xbbd9cf81	-0.006647051
72	0x3c84e4eb	0.016222438
73	0x3c22f2cf	0.009945585
74	0xbb050f4f	-0.0020303314
75	0xbca26e36	-0.019827943
76	0xbcd0a1c4	-0.02546776
77	0xbc8925d4	-0.01674167
78	0xbc53d62e	-0.012929482
79	0xbbdbb1a5	-0.0067045265
80	0x3d05b471	0.032642785
81	0x3b785eb5	0.0037898247
82	0x3ba221cb	0.004947876
83	0xbbe52741	-0.006993205
84	0xbc1a0be6	-0.009402251
85	0xbd0472b9	-0.03233597
86	0xbd73d275	-0.05952688
87	0xbcdc0896	-0.026859563
88	0x3c968dff	0.018378256
89	0xbc482656	-0.012216171
90	0xbcb38696	-0.021914762
91	0x3bb89cb2	0.005633914
92	0x3cbf4000	0.023345947
93	0x3aa9b10a	0.0012946439
94	0xbd13be4a	-0.036070146
95	0x3cc16fc8	0.023612872
96	0xbccf4aa5	-0.025304148
97	0x3d037cea	0.03210155
98	0xbd8cc757	-0.068739586
99	0x3cfb4f52	0.030677471
100	0xbb08f9f0	-0.0020900927
101	0xbc959a0d	-0.018261934
102	0xbcc3a6ac	-0.023883186
103	0xbc97bfc2	-0.018524054
104	0xbbd77066	-0.0065746782
105	0x3c41f2bf	0.01183766
106	0x3c85b118	0.016319796
107	0x3bb671f3	0.005567783
108	0x3c8d6257	0.017258806
109	0x3b6d674e	0.0036224904
110	0xbc96da19	-0.018414544
111	0xbce7c24b	-0.028290888
112	0xbce68833	-0.028141117
113	0x3d287d43	0.041135084
114	0x3c8c0fa9	0.017097311
115	0x3bd31f01	0.006442905
116	0x3bf71151	0.007539906
117	0x3cb4d6c3	0.022075063
118	0xbc9f9193	-0.019478595
119	0xbbb36caa	-0.0054756003
120	0x3b254252	0.0025216532
121	0xbbd3d0d5	-0.0064641037
122	0x3cc270c0	0.023735404
123	0xbc0fabb7	-0.008768967
124	0xbc9a637b	-0.018846264
125	0xbb3bf7fd	-0.0028681748
126	0x3b581e91	0.0032977203
127	0xba1a2257	-0.0005879751
128	0x3d05d607	0.032674816
129	0xbcdd747c	-0.027033083
130	0xbb7f4117	-0.0038948709
131	0x3c60f4e8	0.013730265
132	0xbcb959c6	-0.022625815
133	0x3cc2ff78	0.023803458
134	0x3d4ab8f1	0.04949278
135	0x3c2ee6c4	0.010675136
136	0x3ca719a6	0.020397972
137	0x3bf2ea31	0.0074131717
138	0x3b450510	0.0030062832
139	0x39abdc56	0.00032779825
140	0xba534221	-0.0008058865
141	0xbc02d107	-0.007984406
142	0xbc9bb5b7	-0.019007547
143	0x3cdd4673	0.027011132
144	0xbc984a46	-0.018590104
145	0x3b805408	0.0039162673
146	0x3c2d10c3	0.010563078
147	0x3b2c73e9	0.0026314205
148	0xbbcc8ffc	-0.00624275
149	0x3cf6d91a	0.030132819
150	0xbc97031a	-0.018434096
151	0xbc86fafd	-0.016477102
152	0xbc879736	-0.016551595
153	0xbc0d3e4d	-0.008620811
154	0x3ca3902f	0.019966213
155	0x3b920670	0.004456334
156	0x3ca2e538	0.01988469
157	0xbc548ecf	-0.012973501
158	0x3d0681c3	0.032838594
159	0xbcd685cf	-0.026186852
160	0x3be1d9c4	0.0068924148
161	0x3cbdc5ed	0.023165667
162	0x3cc7ffff	0.02441406
163	0xbcabe8bb	-0.020984998
164	0xbb8c625d	-0.0042841868
165	0xbc5ae74c	-0.01336081
166	0xbd32d6b0	-0.043661773
167	0xbc59ac2a	-0.013285676
168	0xbc9b61ad	-0.018967474
169	0x3c0a6a2b	0.008448164
170	0x3cb29598	0.021799847
171	0x3c986b85	0.018605957
172	0xbc2a735f	-0.010403483
173	0xbc010c1f	-0.007876425
174	0xbc154e17	-0.009112856
175	0x3cd110a6	0.025520634
176	0x3b28d745	0.0025763076
177	0xbd042370	-0.03226036
178	0x3d154875	0.036446054
179	0xbb5f9697	-0.0034116858
180	0x3b5d5a34	0.003377569
181	0xbd442f79	-0.047896836
182	0xbcb69bc3	-0.02229107
183	0xbbebddb8	-0.007198062
184	0xbb4ba3f3	-0.0031073063
185	0xbbadeaf8	-0.0053075515
186	0x3c214102	0.009842159
187	0x3bdfd81d	0.0068311826
188	0xbc9c00a3	-0.019043272
189	0xbba1551a	-0.004923475
190	0x3ba18a22	0.004929797
191	0x3c05f7ae	0.008176727
192	0x3c468ff5	0.012119283
193	0x3c67f9d5	0.014158686
194	0xbc108f28	-0.008823194
195	0xbd217b3e	-0.039424174
196	0x3cb77b34	0.022397615
197	0x3bda5e8b	0.0066641024
198	0x3ca31be4	0.01991076
199	0x3b8e6224	0.0043451954
200	0xbb429273	-0.0029689341
201	0x3c52c255	0.012863715
202	0x3bb636ae	0.0055607175
203	0x3d44ccaf	0.048046764
204	0xbca5a6e1	-0.020221176
205	0x3c1d3c9b	0.009596969
206	0xbb80e874	-0.0039339606
207	0xbc638545	-0.013886754
208	0xbb1a4dfc	-0.0023545017
209	0x3d21f524	0.039540425
210	0xbbe1e7d1	-0.0068940897
211	0xbb776f22	-0.003775545
212	0xbc946cb5	-0.018118242
213	0xbbfb5693	-0.0076702326
214	0x3c60f8aa	0.013731161
215	0xbc0194f5	-0.007909049
216	0xbc507a8b	-0.012724529
217	0x3ca4ae0d	0.020102525
218	0x3b5b847b	0.0033495713
219	0xbd0ac43b	-0.033878546
220	0x3d089bb9	0.033351634
221	0xbd00ebb5	-0.031474788
222	0xbc0621ea	-0.008186797
223	0x3c369469	0.011143782
224	0x3c8f10e2	0.017464105
225	0xba800530	-0.0009767171
226	0xbb7add0c	-0.0038278727
227	0x3cbb5c68	0.022871211
228	0xbc35b14b	-0.011089633
229	0xbc042f78	-0.008067958
230	0x3ac8b4c8	0.0015312666
231	0xbad2cca3	-0.0016082715
232	0x3babae1f	0.0052392627
233	0xbb4d3b97	-0.0031316036
234	0xbcbd07b9	-0.023074972
235	0x3c75ea3b	0.015009458
236	0xbc7d3bbf	-0.015456139
237	0x3ca60196	0.020264428
238	0xbbcce71a	-0.0062531354
239	0xbc9d3177	-0.019188626
240	0xbce7053c	-0.028200738
241	0x3cb9d5e9	0.022685008
242	0x3c833fb1	0.016021581
243	0x3c83dfd0	0.016097933
244	0xbcc2d72f	-0.023784248
245	0x3d0e41ae	0.034730606
246	0xbc2c3ce1	-0.010512562
247	0x3bab74b9	0.0052324203
248	0x3bde493b	0.006783632
249	0xbc195964	-0.009359691
250	0xbd0656b8	-0.032797545
251	0xbb73bd0b	-0.0037191536
252	0xbb9df108	-0.004819993
253	0x3c8b5360	0.01700753
254	0x3c8ad987	0.016949428
255	0x3c10191a	0.008795047

MatMul_1 f4 [32, 32]
0	0xbcad7798	-0.02117519
1	0xbdfb3735	-0.12266389
2	0x3dbe8038	0.093017995
3	0xbd823986	-0.06358628
4	0xbdc70f40	-0.097197056
5	0xbd54f14d	-0.051987935
6	0x3de368de	0.11103986
7	0xbe275235	-0.16339953
8	0xbd8c7d1f	-0.068598025
9	0x3dfa6f1c	0.12228224
10	0x3ccf7c2d	0.025327766
11	0x3e14092c	0.14456624
12	0xbd9196ca	-0.07108839
13	0x3e09134d	0.13386269
14	0x3e2ededf	0.17077206
15	0xbb23163c	-0.002488508
16	0x3d5510ac	0.052017853
17	0x3af588f0	0.0018732827
18	0x3df5bf5f	0.11999392
19	0x3e14a15c	0.14514679
20	0x3c241df1	0.010016904
21	0xbcdf1143	-0.02722991
22	0xbe43b260	-0.19111013
23	0xbd722afd	-0.059123028
24	0xbe29b4fc	-0.16572946
25	0x3e0319dc	0.12802833
26	0x3d6ca083	0.057770263
27	0xbdf16c68	-0.11788255
28	0xbd4c0cf7	-0.04981705
29	0x3cf2c5d8	0.029635355
30	0xbc483780	-0.0122202635
31	0x3e1acc89	0.15117086
32	0xbde6f02a	-0.112762764
33	0xbe25b177	-0.16180979
34	0xbd45b441	-0.048267607
35	0x3d3adda8	0.045621544
36	0xbcaf7c72	-0.021421645
37	0x3b15c436	0.0022852547
38	0x3ddc2298	0.10748786
39	0x3dc886fb	0.097913705
40	0x3e0e69ea	0.1390759
41	0x3df48cf6	0.11940949
42	0x3de3e367	0.11127358
43	0x3e24c05d	0.16089006
44	0xbe44da34	-0.19223863
45	0x3e135469	0.14387669
46	0x3d089444	0.033344522
47	0x3c52a273	0.012856114
48	0x3e5b2df6	0.21404251
49	0xbe093871	-0.13400437
50	0x3dc78341	0.097418316
51	0xbcc84b07	-0.024449838
52	0x3e06c7b6	0.13162121
53	0x3df1ad00	0.11800575
54	0x3dfdafba	0.12387033
55	0x3d29b496	0.041431986
56	0xbc770b70	-0.0150784105
57	0xbbaeb352	-0.0053314352
58	0xbdcef843	-0.10105946
59	0xbd8cba69	-0.068714924
60	0x3e11dbbb	0.14243977
61	0xbd0064c7	-0.03134611
62	0x3e2494a7	0.16072331
63	0x3e0622a8	0.13099158
64	0x3d962a9a	0.07332344
65	0xbc64acb4	-0.013957191
66	0x3d71cf3e	0.059035532
67	0x3dad4d11	0.08461965
68	0x3ccf3aab	0.02529653
69	0xbd96cc7c	-0.07363221
70	0xbe0b5359	-0.13606013
71	0xbdb1e33f	-0.08685922
72	0x3e1cae1b	0.15300791
73	0xbc19563c	-0.009358939
74	0xbe18bca6	-0.14915714
75	0x3e1df791	0.1542647
76	0x3d826532	0.06366958
77	0x3d294daf	0.04133385
78	0x3e15dda4	0.1463533
79	0x3d45fa36	0.048334323
80	0x3e29033b	0.16505139
81	0xbe27b17b	-0.16376297
82	0xbc531bce	-0.012885047
83	0x3db3a087	0.087708525
84	0x3df11712	0.117719784
85	0xbd0f4332	-0.03497619
86	0xbc7be2f2	-0.015373932
87	0x3d58feb9	0.052977297
88	0xbe1daa68	-0.15397036
89	0xbe179558	-0.14803064
90	0xbd433c11	-0.047664706
91	0x3dc49e65	0.09600524
92	0x3de6370e	0.112409696
93	0x3dbc4807	0.091934256
94	0x3cd608ec	0.026127301
95	0xbd89e249	-0.067326136
96	0x3e1067d3	0.14102106
97	0xbe21cf6c	-0.15801781
98	0x3df98f87	0.12185579
99	0x3e2071ba	0.15668383
100	0x3cc5df1d	0.02415424
101	0x3df12a4e	0.11775647
102	0xbaeb3908	-0.0017946074
103	0xbdc05eb4	-0.09393063
104	0xbe1988cc	-0.1499359
105	0x3c67d9d3	0.014151054
106	0x3d76770b	0.060172122
107	0x3e13a6f1	0.14419152
108	0xbd85aac9	-0.06526715
109	0xbe4ec2c9	-0.20191492
110	0xbdb9da0c	-0.09074792
111	0x3d9839b7	0.07432883
112	0xbe5c5d40	-0.21519947
113	0x3e5c4530	0.21510768
114	0x3d26008f	0.040527876
115	0x3c081c50	0.0083075315
116	0xbe0e9395	-0.13923486
117	0xbcf9f26d	-0.030511105
118	0x3ca6d41e	0.020364817
119	0xbde93c10	-0.11388409
120	0xbde5575c	-0.11198303
121	0xbded33cc	-0.11582145
122	0x3d554efd	0.052077282
123	0xbd9bb860	-0.07603526
124	0x3df920c9	0.121644564
125	0xbcba9847	-0.02277769
126	0xbe0aacd1	-0.13542487
127	0xbe0189e5	-0.12650259
128	0x3dbcb1d8	0.092136085
129	0xbd2edbe9	-0.04269019
130	0x3c758a65	0.014986609
131	0xbe029f6b	-0.12756126
132	0xbd2733fe	-0.040821068
133	0x3dad32c6	0.0845695
134	0xbe03ca32	-0.128701
135	0x3ce1deae	0.027572002
136	0xbd3ca4d8	-0.046055645
137	0xbdf323e9	-0.11872084
138	0xbd8c21da	-0.06842394
139	0xbc51a619	-0.012795948
140	0xbe024e95	-0.12725289
141	0xbdb02b43	-0.086020015
142	0x3da7a4ae	0.08185707
143	0x3d8cbb40	0.068716526
144	0x3e01e0ea	0.12683454
145	0x3e2168ab	0.15762584
146	0xbd989f6a	-0.07452281
147	0xbce3c1f0	-0.027802438
148	0xbdf6dc64	-0.12053755
149	0xbd86a402	-0.06574251
150	0x3dd9b305	0.106298484
151	0x3b464971	0.0030256177
152	0x3e070f70	0.13189483
153	0x3da350a6	0.07974367
154	0xbca19e96	-0.01972894
155	0xbd92140f	-0.07132732
156	0xbda195bd	-0.078898884
157	0xbd1338a2	-0.03594268
158	0x3e1093ee	0.1411893
159	0x3e2fc2f0	0.17164207
160	0x3b415b91	0.002950404
161	0xbd3f25dd	-0.04666697
162	0xbcaddc3b	-0.021223178
163	0xbcf89b6f	-0.030347554
164	0x3da99195	0.08279721
165	0x3de37b4f	0.111075036
166	0xbdbb455f	-0.09144091
167	0xbd334568	-0.043767363
168	0x3dcc3b4d	0.09972248
169	0x3dbd0f2e	0.09231411
170	0xbd3f20f6	-0.046662293
171	0x3dc17388	0.09445864
172	0xbdaf0cf1	-0.0854739
173	0x3dde2a99	0.108479686
174	0xbd8f07c3	-0.06983902
175	0x3ca3cd8a	0.01999547
176	0xbcf6b4ca	-0.030115504
177	0xbdbfe859	-0.09370489
178	0x3e2af849	0.16696276
179	0x3d7b4df8	0.061353654
180	0x3b98fd88	0.004668895
181	0xbd4c44ef	-0.049870428
182	0xbdedda47	-0.11613899
183	0xbc5ab146	-0.013347929
184	0xbd8561e6	-0.06512813
185	0xbb61c062	-0.0034446944
186	0xbdd695b8	-0.10477775
187	0x3defa7d1	0.1170193
188	0x3c2a3289	0.010388025
189	0xbd7a9bee	-0.061183862
190	0x3d2a84f4	0.0416307
191	0x3dc11b58	0.094290435
192	0x3d84588e	0.06462203
193	0xbe0c6117	-0.13708912
194	0x3d3b42ae	0.045717888
195	0x3e1453b3	0.14485054
196	0xbc371c89	-0.011176237
197	0x3dbe932d	0.09305415
198	0xbe17a384	-0.1480847
199	0xbd74c6c9	-0.05975989
200	0xbcb86d36	-0.022513013
201	0xbe05565a	-0.13021222
202	0x3d897484	0.06711677
203	0xbc3bb859	-0.011457526
204	0xbd5433ea	-0.05180732
205	0x3cc3422f	0.02383527
206	0xbdaed6f4	-0.08537093
207	0xbdf0d944	-0.1176019
208	0x3d5865b4	0.052831367
209	0x3bc50427	0.006012458
210	0x3d96c01f	0.07360863
211	0xbe4618b6	-0.19345364
212	0xbdab0007	-0.083496146
213	0x3ce1a664	0.027545162
214	0x3da7fd75	0.0820264
215	0x3d2038c2	0.03911663
216	0xbbba6313	-0.00568808
217	0xbccf3117	-0.025291963
218	0x3d96c5e6	0.07361965
219	0x3d8b1a04	0.067920715
220	0x3d25a256	0.04043802
221	0xbc5e5840	-0.013570845
222	0xbdc7a496	-0.09748189
223	0xbd81b268	-0.063328564
224	0x3d84eebd	0.06490848
225	0x3e248e13	0.16069822
226	0xbd85fc92	-0.065423146
227	0x3e2219bd	0.15830131
228	0x3dc93815	0.0982515
229	0xbe156f43	-0.14593224
230	0xbd822869	-0.06355364
231	0x3e0c30bc	0.13690466
232	0xbe1bf2a4	-0.15229279
233	0x3d8f05a8	0.06983501
234	0xbc8827d9	-0.016620563
235	0xbd03cee6	-0.032179736
236	0x3d9f46df	0.077771895
237	0xbe0015a2	-0.12508252
238	0xbe33071e	-0.17483184
239	0xbd0eee6e	-0.034895353
240	0x3c369d96	0.01114597
241	0x3dcf5a65	0.10124663
242	0xbce51b8b	-0.027967235
243	0x3e16b1a2	0.14716199
244	0x3db67d4e	0.08910619
245	0xbd9383ac	-0.07202849
246	0x3e04f685	0.12984665
247	0x3de2ad35	0.11068193
248	0xbd83f1dc	-0.064426154
249	0x3dbf4204	0.09338763
250	0x3dddd4ed	0.10831628
251	0x3cb48e22	0.02204043
252	0x3e251916	0.16122851
253	0x3dd576db	0.104230605
254	0xbcc82e85	-0.024436245
255	0x3d62ef7c	0.05540417

MatMul_2 f4 [1, 32]
0	0xbeb9fd0b	-0.3632587
1	0xbeb257f9	-0.34832743
2	0xbeae4102	-0.34033972
3	0x3e29c59f	0.16579293
4	0x3dbf8e50	0.09353316
5	0x3e02c37d	0.12769885
6	0xbd9952fc	-0.07486531
7	0x3cc95954	0.024578728
8	0x3e19f13f	0.15033434
9	0xbcb2ef5a	-0.021842647
10	0x3e61efeb	0.22064178
11	0x3e4b3337	0.19843756
12	0x3da3d0cb	0.079988085
13	0x3d865362	0.06558873
14	0xbd717fdd	-0.05895983
15	0xbea94eec	-0.33068025
16	0xbc9a28cf	-0.018818287
17	0xbddc92a6	-0.107701585
18	0xbec69c55	-0.38791147
19	0xbea79132	-0.32727963
20	0x3e3b6bff	0.18302916
21	0x3cd08ec1	0.025458695
22	0xbeabce45	-0.3355581
23	0xbe9e79e7	-0.3095238
24	0x3e8dfb5e	0.2773084
25	0x3ca4394a	0.020046849
26	0xbea4f956	-0.32221478
27	0x3e15ae12	0.14617184
28	0x3dfd0e08	0.12356192
29	0x3d8b06fa	0.0678844
30	0xbe9cbfa5	-0.30614963
31	0xbe246cd1	-0.16057135
