glados.tflite (tflite, 206748 bytes, 9 tensors)

Const_1 f4 [32]
-0.022696644 -0.016756354 0.011642423 0.01783772 0.02471058 -0.005714125 -0.016894717 0.0049012094
0.017001094 -0.023734057 0.023919795 0.004093786 -0.020532545 -0.025593793 -0.016288817 0.00037403026
-0.02684871 -0.012086726 -0.0196818 0.008265331 0.015642453 0.020820752 0.021990642 -0.017573105
0.0066947113 0.020549871 -0.006623278 -0.009948849 0.019068 -0.017638471 0.010084822 -0.016692733
00000000: 50ee b9bc 9f44 89bc ddbf 3e3c 6920 923c
00000010: d86d ca3c 8e3d bbbb ca66 8abc 539a a03b
00000020: e145 8b3c ed6d c2bc 72f3 c33c 2a25 863b
00000030: de33 a8bc 13aa d1bc 2070 85bc 7e19 c439
00000040: d3f1 dbbc 6707 46bc ba3b a1bc 506b 073c
00000050: 9a24 803c 4890 aa3c b825 b43c 79f5 8fbc
00000060: 4f5f db3b 3458 a83c 1508 d9bb 7f00 23bc
00000070: 7f34 9c3c 8e7e 90bc cf3a 253c 33bf 88bc

Const_2 f4 [32]
0.98050064 1.0052204 1.0127403 0.9934308 1.0007837 1.0089064 1.007492 1.0563352
0.9870669 0.99050075 0.9985994 0.9416729 0.9774327 0.994624 0.9427456 0.9963864
0.98832905 0.9838902 0.99426144 0.9905148 1.0260983 0.9909413 1.0313038 1.0112842
1.0410186 1.0191833 0.984275 0.9914658 1.0617853 1.0144284 0.98095006 0.98757344
00000000: 1702 7b3f 10ab 803f 79a1 813f 7b51 7e3f
00000010: ae19 803f d823 813f 7ff5 803f fe35 873f
00000020: 6bb0 7c3f 7591 7d3f 36a4 7f3f 7a11 713f
00000030: 0839 7a3f ae9f 7e3f c757 713f 2e13 7f3f
00000040: 2203 7d3f 3ae0 7b3f eb87 7e3f 6192 7d3f
00000050: 3057 833f 54ae 7d3f c301 843f c371 813f
00000060: 1940 853f 9974 823f 72f9 7b3f b4d0 7d3f
00000070: 95e8 873f cad8 813f 8b1f 7b3f 9dd1 7c3f

Const_3 f4 [32]
-0.0059162746 0.008483779 0.016909465 -0.010473553 0.011511153 0.009046307 0.012364617 0.05098994
-0.0069320253 0.00102853 0.0050031445 0.017692018 0.008682676 0.0002563715 -0.060734626 -0.014706185
-0.0064263926 0.0028364141 0.003619081 -0.019018922 0.022828955 0.022959564 0.044510715 0.009160027
0.02047481 0.009048612 -0.0018393926 -0.013737934 0.09403086 0.03448231 -0.06833801 -0.0050402326
00000000: 4fdd c1bb 8cff 0a3c b885 8a3c 4499 2bbc
00000010: 4699 3c3c f636 143c f694 4a3c d4da 503d
00000020: 0b26 e3bb bdcf 863a 6bf1 a33b daee 903c
00000030: c841 0e3c 9a69 8639 dfc4 78bd 36f2 70bc
00000040: 7d94 d2bb 22e3 393b 1b2e 6d3b 92cd 9bbc
00000050: ca03 bb3c b215 bc3c de50 363d f013 163c
00000060: caba a73c a140 143c c617 f1ba 1215 61bc
00000070: 4093 c03d 533d 0d3d ccf4 8bbd 8928 a5bb

Const_5 f4 [32]
-0.11456107 -0.078186154 0.026023809 -0.10324432 -0.18397321 0.029014662 -0.06970803 -0.10207581
0.012449529 0.09508422 0.12088703 0.08365847 -0.07963229 0.13210003 -0.061334632 -0.02211468
0.13460124 -0.16394994 0.10480637 0.12754571 0.117289945 0.15247804 -0.02171574 0.16900063
0.074201256 0.018058185 0.14985201 0.04487192 0.0651342 0.016024293 0.0166242 0.003241012
00000000: ff9e eabd 1020 a0bd e22f d53c c271 d3bd
00000010: 7963 3cbe 28b0 ed3c 15c3 8ebd 1f0d d1bd
00000020: 1cf9 4b3c 84bb c23d 9f93 f73d 2255 ab3d
00000030: 4116 a3bd 3b45 073e 063a 7bbd d829 b5bc
00000040: e8d4 093e 7ee2 27be b9a4 d63d 589b 023e
00000050: b635 f03d 3423 1c3e 35e5 b1bc 800e 2d3e
00000060: d4f6 973d c2ee 933c ce72 193e 9ecb 373d
00000070: 1465 853d 6145 833c 792f 883c 2967 543b

Const_6 f4 [32]
1.0910573 1.0005803 0.9758821 0.99979275 1.003457 1.0613924 1.0103561 1.0240226
1.0970783 0.9936886 1.3659785 0.9937337 1.0320753 1.3526888 0.9999677 1.0636084
1.3854344 1.2987831 1.2327447 1.2594206 0.9936264 1.3482486 1.0055016 1.0115298
1.173745 1.0071763 1.0561137 1.3560779 1.0529307 1.0466763 1.0141441 1.013471
00000000: c4a7 8b3f 0413 803f 69d3 793f 6bf2 7f3f
00000010: 4771 803f b5db 873f 5953 813f 2c13 833f
00000020: 106d 8c3f 6062 7e3f 62d8 ae3f 5565 7e3f
00000030: 0b1b 843f e824 ad3f e2fd 7f3f 5224 883f
00000040: ea55 b13f 863e a63f 94ca 9d3f b234 a13f
00000050: 4d5e 7e3f 6993 ac3f 47b4 803f cf79 813f
00000060: 473d 963f 27eb 803f bc2e 873f f693 ad3f
00000070: 6fc6 863f 7df9 853f 79cf 813f 6bb9 813f

Const_7 f4 [32]
0.034329176 0.0012015696 -0.07713191 0.002607514 0.0034986024 0.049279377 0.0008531 0.02578885
0.04531274 -0.011279878 0.32750478 -0.020567672 0.032983568 0.32131082 0.0067665353 0.064503126
0.33867562 0.30406913 0.27017525 0.2862673 -0.008176882 0.3199357 0.018929863 0.015071188
0.10235178 0.012355547 0.027757678 0.32558492 0.02600033 0.043255854 0.022966858 0.02709114
00000000: c09c 0c3d fc7d 9d3a 56f7 9dbd d3e2 2a3b
00000010: cf48 653b 2cd9 493d 92a2 5f3a 2343 d33c
00000020: da99 393d 3dcf 38bc b5ae a73e 897d a8bc
00000030: c719 073d da82 a43e d0b9 dd3b 371a 843d
00000040: e466 ad3e f3ae 9b3e 6954 8a3e a191 923e
00000050: 54f8 05bc 9dce a33e cd12 9b3c 25ed 763c
00000060: cf9d d13d ec6e 4a3c 1264 e33c 11b3 a63e
00000070: a5fe d43c 0d2d 313d fe24 bc3c 3dee dd3c

MatMul f4 [32, 1536]
0.009545998 -0.022086643 0.00077687803 -0.034273352 -0.004662279 -0.018629955 -0.011819695 -0.00583258
0.005264661 -0.019723335 -0.0016187812 -0.0013279559 -0.009460525 -0.0068197977 0.020915687 0.008355826
0.029244687 0.0017502519 0.020371825 0.018588815 -0.016767174 0.030097447 -0.023620363 -0.004028487
0.019918364 -0.016255775 -0.019483171 0.0007586015 0.00787523 -0.030159958 0.026518697 0.02033206
-0.018031504 -0.004129684 0.007448156 0.0278182 -0.01916153 -0.014293092 0.0072071925 -0.005633919
-0.002583091 -0.009328758 -0.021785302 -0.011259098 -0.014844113 -0.013890241 0.01147191 -0.006094904
0.0152597595 0.002444481 0.003408973 -0.014741055 -0.014168211 -0.009458254 -0.014098479 0.012347342
0.012197592 0.0016298927 0.0012610487 -0.012108821 -0.016264139 -0.0076037464 -0.005088968 -0.014118721
0.0025388794 0.017617898 -0.010250127 0.0051802658 0.0017022492 -0.012969437 -0.0045065894 -0.0001528728
-0.009725207 0.010057525 0.007335282 -0.023022585 0.021865265 0.025791148 -0.012976964 0.007630402
0.021180943 -0.005357472 -0.014538971 0.018299853 0.015984625 -0.001929309 -0.0065491544 0.00062989263
-0.008258081 -0.00017947542 0.0073405327 0.0028398295 -0.010317451 -0.004469833 -0.005689793 0.0014626312
-0.028266316 -0.0107561685 0.0025402256 -0.03517459 0.0075771976 0.024886234 0.013979022 -0.019886166
0.0037298729 -0.004892928 0.005345792 0.027837237 0.0018460453 0.01241106 -0.022941967 -0.02385532
0.0021047837 -0.0041347006 0.010980772 -0.0017788395 -0.0138965575 -0.0036428254 0.013020039 0.0073180515
-0.00067778956 -0.0033637772 -0.011079358 0.019268408 0.002741526 -0.022971893 0.023678487 -0.019623116
-0.026202813 -0.033435483 -0.027626792 0.00208103 0.0016242579 0.018188652 -0.019071834 0.008384237
0.016556723 0.01738343 -0.008191391 -0.015163881 -0.033484194 -0.020706419 -0.026743447 -0.01192155
0.01914827 0.0030151834 0.023562424 -0.011962278 -0.016385913 0.015754336 0.01793019 0.02569977
0.004795831 -0.014912589 0.0013086199 -0.012212117 0.014480029 0.012593214 0.017304908 0.0068634558
-0.0137447715 -0.00019419707 0.020245185 -0.009972715 0.008229426 0.016035972 -0.027380107 -0.010979745
-0.019003779 -0.0209516 0.008320529 -0.023437029 0.02178695 0.027039615 -0.023870697 -0.013256725
-0.029307986 -0.0027617607 0.0051117637 -0.0065413197 0.0056899213 0.0086148 -0.0033755952 0.012609501
0.024197662 0.018819384 -0.008963615 -0.0177775 0.011673069 0.017438686 0.0026637963 -0.021737436
-0.017586453 -0.013627065 0.021775618 -0.01422251 0.008609713 0.0023045198 0.010225581 0.012960896
-0.011313129 0.022332845 0.0054664887 0.023884322 -0.007994668 -0.014166514 -0.014242815 -0.019648418
-0.0025882812 -0.0004688731 -0.022818333 0.021143667 -0.005877027 -0.0010780919 0.008069198 -0.017788766
0.017438803 -0.0073295124 0.016013982 -0.025328519 -0.010916208 -0.009372143 -0.009535217 -0.0054088878
0.02291004 -0.015290668 -0.020299984 0.006922863 -0.010054502 0.025531383 -0.025841508 0.011201325
0.028157119 -0.0085369 0.020546112 -0.0037676985 0.01853676 -0.005298519 -0.02531717 -0.0010094012
0.0030052047 0.027458278 -0.0048150485 0.029660879 0.006212106 0.021983653 0.016826814 0.009368647
-0.022717755 -0.024307527 -0.02078118 -0.006056062 -0.016622782 0.021302896 -0.00971621 0.00720387
00000000: d166 1c3c 0cef b4bc 67a7 4b3a 3762 0cbd
00000010: 08c6 98bb d99d 98bc 65a7 41bc 3a1f bfbb
00000020: 2d83 ac3b d592 a1bc 492d d4ba ce0e aeba
00000030: 5100 1bbc 9c78 dfbb 6057 ab3c e0e6 083c
00000040: 8e92 ef3c b568 e53a d0e2 a63c 9247 983c
00000050: 505b 89bc ec8e f63c 7e7f c1bc 6601 84bb
00000060: d62b a33c d52a 85bc 2c9b 9fbc e3dc 463a
00000070: 1c07 013c 0412 f7bc bd3d d93c 6c8f a63c
00000080: ceb6 93bc 4d52 87bb a90f f43b fee2 e33c
00000090: a4f8 9cbc 932d 6abc 502a ec3b bd9c b8bb
000000a0: 1349 29bb a6d7 18bc 1777 b2bc 1478 38bc
000000b0: b934 73bc e593 63bc aef4 3b3c c3b7 c7bb
000000c0: 1204 7a3c 9633 203b 1469 5f3b 7784 71bc
000000d0: c921 68bc cbf6 1abc 4ffd 66bc 824c 4a3c
000000e0: 69d8 473c 20a2 d53a c649 a53a 1464 46bc
000000f0: 5f3c 85bc d928 f9bb 5cc1 a6bb 3552 67bc
00000100: 5463 263b 6953 903c 26f0 27bc 38bf a93b
00000110: 011e df3a c37d 54bc 03ac 93bb 7b4c 20b9
00000120: 7a56 1fbc 51c8 243c ce5c f03b dc99 bcbc
00000130: c91e b33c f547 d33c 559d 54bc 7408 fa3b
00000140: a883 ad3c bc8d afbb dd34 6ebc 93e9 953c
00000150: 30f2 823c dee0 fcba 4a9a d6bb 611f 253a
00000160: e74c 07bc 9131 3cb9 da88 f03b 6f1c 3a3b
00000170: 870a 29bc ad77 92bb 7171 babb c2b5 bf3a
00000180: c38e e7bc a43a 30bc ea79 263b 3b13 10bd
00000190: 244a f83b 37de cb3c 4508 653c 50e8 a2bc
000001a0: e270 743b db54 a0bb c12b af3b eb0a e43c
000001b0: 00f7 f13a c257 4b3c cbf0 bbbc 3b6c c3bc
000001c0: 69f0 093b 627c 87bb b2e8 333c f327 e9ba
000001d0: 63ae 63bc 78bc 6ebb 0052 553c 44cc ef3b
000001e0: b0ad 31ba d172 5cbb 3286 35bc c8d8 9d3c
000001f0: 2dab 333b 8d2f bcbc 63f9 c13c a8c0 a0bc
00000200: 48a7 d6bc a5f3 08bd 9551 e2bc e461 083b
00000210: 0de5 d43a 5e00 953c 893c 9cbc 0a5e 093c
00000220: f7a1 873c b267 8e3c 2f35 06bc ed71 78bc
00000230: b926 09bd 82a0 a9bc 1315 dbbc 9b52 43bc
00000240: d5dc 9c3c 629a 453b fc05 c13c 6efd 43bc
00000250: c03b 86bc 3d0f 813c 55e2 923c 5388 d23c
00000260: 5926 9d3b ef53 74bc ff85 ab3a 5515 48bc
00000270: a53d 6d3c c553 4e3c 06c3 8d3c d7e6 e03b
00000280: c031 61bc 61a1 4bb9 3bd9 a53c 9964 23bc
00000290: b7d4 063c df5d 833c 3f4c e0bc 63e4 33bc
000002a0: d0ad 9bbc b1a2 abbc d452 083c 03ff bfbc
000002b0: 8c7a b23c 2f82 dd3c 7b8c c3bc bc32 59bc
000002c0: 4d17 f0bc a8fe 34bb 9580 a73b 9158 d6bb
000002d0: 8572 ba3b 1725 0d3c 1739 5dbb 1598 4e3c
000002e0: 2d3a c63c 1c2b 9a3c 20dc 12bc 1fa2 91bc
000002f0: 6640 3f3c 93db 8e3c 1693 2e3b b512 b2bc
00000300: 7711 90bc 0e44 5fbc c862 b23c 8805 69bc
00000310: c10f 0d3c 6d07 173b 3289 273c f059 543c
00000320: b45a 39bc 5ff3 b63c 3b20 b33b 0ea9 c33c
00000330: 11fc 02bc ab1a 68bc b25a 69bc b8f5 a0bc
00000340: 27a0 29bb 15d3 f5b9 83ed babc 7c35 ad3c
00000350: 1394 c0bb c34e 8dba ab34 043c bfb9 91bc
00000360: d2db 8e3c 682c f0bb c12f 833c c17d cfbc
00000370: e5d9 32bc 9e8d 19bc 9939 1cbc 0a3d b1bb
00000380: d6ad bb3c b685 7abc 274c a6bc 2fd9 e23b
00000390: a3bb 24bc 3127 d13c 92b1 d3bc c385 373c
000003a0: c2a9 e63c 5bde 0bbc 5250 a83c 7eeb 76bb
000003b0: 67da 973c 339f adbb f465 cfbc e24d 84ba
000003c0: f8f2 443b 2ff0 e03c 8ec7 9dbb 5ffb f23c
000003d0: ec8e cb3b 1017 b43c 63d8 893c f47e 193c
000003e0: 961a babc 9420 c7bc 4b3d aabc ee71 c6bb
000003f0: 802c 88bc 6983 ae3c bd30 1fbc 710e ec3b

MatMul_1 f4 [32, 32]
-0.10351731 0.062308956 -0.12548223 -0.04595864 -0.14408557 -0.11096345 -0.12423046 0.1755167
0.01007304 -0.098060794 0.15298149 0.10781668 0.050348017 0.010896062 0.08950971 -0.096749365
0.051870894 0.08329814 -0.14683296 0.09551529 -0.2087791 -0.042079903 0.14319661 0.11997107
-0.00056920224 0.037023257 -0.16708358 0.16259992 0.10559593 0.083034165 0.04647343 -0.107269056
-0.02009485 0.11633418 -0.07946581 0.088193186 0.10585022 0.040724967 -0.13012247 -0.017522143
0.09081263 -0.04771554 -0.0568136 0.054080203 0.012730555 0.14253746 -0.03818368 -0.14570232
0.08367381 0.07565462 -0.11064517 -0.10787007 -0.12378124 -0.08377162 -0.10173541 -0.09974796
0.16246665 -0.08140387 0.07246568 0.10841353 0.073151745 0.11166832 -0.11372298 -0.17167279
-0.0167055 0.039387267 -0.14145629 0.12816629 0.08093531 -0.049858406 0.011133196 -0.051000368
0.14604105 0.18577735 0.21084867 -0.096183196 -0.12140477 0.15753338 0.08908716 -0.039457478
0.008984418 -0.05941104 0.042376347 0.013092618 0.067486815 -0.13749638 -0.10779983 -0.069066375
0.03723139 -0.077373125 0.14299239 -0.03647615 0.0086364 -0.0953681 -0.13294396 -0.11937907
0.0803194 -0.08903514 0.02139653 -0.15439788 0.04932111 -0.013822442 0.09614291 0.13403842
-0.123559095 0.12589583 0.058192205 -0.118521355 -0.15950492 -0.02772856 0.08407126 0.114866935
0.0019158943 0.04114623 0.018501911 0.06355647 -0.03126373 -0.13644223 -0.030712463 0.004951213
-0.018961214 -0.14865644 0.077581346 -0.112973064 -0.12768751 0.0862711 0.07346817 0.14607239
-0.042519573 -0.16413748 -0.16632996 -0.019716749 0.09623777 0.012611273 -0.23505566 -0.0069152554
-0.03210163 0.020371376 0.1635162 0.14452393 -0.018243026 0.09545414 0.12308783 0.15549576
-0.1395471 0.013139255 0.027785687 0.1218082 0.01533582 0.030727616 -0.071615785 0.0068117133
0.015028572 0.043763753 0.10013493 -0.10494379 -0.014602565 -0.08088249 0.16430648 0.035693288
-0.11837124 -0.017284203 -0.012944968 0.019583652 -0.019206887 -0.017973902 0.11292428 -0.04546614
0.030007707 0.034644425 0.12814453 0.012763667 -0.103925265 0.01964755 -0.024472144 -0.12571737
-0.12547067 -0.053649787 0.03457028 0.10500408 -0.18379511 -0.09276256 0.067716815 0.028783383
-0.0010463003 -0.085157104 -0.104118384 0.101347595 0.031874184 0.016433563 0.024405282 0.13506635
-0.05501679 0.11360435 0.05109686 0.15999524 -0.13596599 0.13305221 -0.06409757 0.06326899
-0.028918957 -0.109390154 0.059868302 0.06514456 0.15274048 -0.121289976 -0.081420705 0.061896574
0.10161967 0.029430635 -0.021738235 -0.051360644 -0.124035336 -0.1397497 0.019668529 -0.01261893
0.029609457 0.15224607 0.011773474 -0.14878957 0.07697532 -0.10466557 -0.10740188 -0.0044601876
-0.083262816 -0.01532064 -0.04878721 0.12252794 -0.1616405 0.10615855 -0.1344918 0.08759785
-0.0033812148 0.053228293 0.092308074 -0.008138553 0.15834214 0.03650757 -0.02475449 -0.14108893
-0.06383718 -0.15136044 -0.07434764 0.10775605 -0.13101783 0.09478185 0.0784257 0.12082381
0.024472266 0.1590953 -0.0019403265 -0.16197816 0.23598838 -0.09503944 0.049630295 0.14637566
00000000: e200 d4bd ad37 7f3d 6a7e 00be 203f 3cbd
00000010: 2b8b 13be ce40 e3bd 8a6c febd a6ba 333e
00000020: 6409 253c 19d4 c8bd 2ea7 1c3e fece dc3d
00000030: b939 4e3d 6585 323c de50 b73d 8824 c6bd
00000040: 9376 543d 3798 aa3d 615b 16be 859d c33d
00000050: 30ca 55be fa5b 2cbd 22a2 123e 64b3 f53d
00000060: 8436 15ba b3a5 173d f517 2bbe 9880 263e
00000070: ae42 d83d d10d aa3d ec5a 3e3d e1af dbbd
00000080: f49d a4bc 9d40 ee3d f8be a2bd a19e b43d
00000090: 00c8 d83d 39cf 263d d33e 05be 998a 8fbc
000000a0: f9fb b93d 5f71 43bd 61b5 68bd 3483 5d3d
000000b0: d193 503c 57f5 113e 7e66 1cbd fd32 15be
000000c0: 2d5d ab3d cff0 9a3d ef99 e2bd fcea dcbd
000000d0: 0581 fdbd 7590 abbd a85a d0bd a948 ccbd
000000e0: a85d 263e 12b7 a6bd e368 943d ea07 de3d
000000f0: 95d0 953d 5cb2 e43d 98e7 e8bd feca 2fbe
00000100: f9d9 88bc 8b54 213d ebd9 10be 063e 033e
00000110: 69c1 a53d 5438 4cbd 0268 363c c3e5 50bd
00000120: c98b 153e 6b3c 3e3e b7e8 573e b2fb c4bd
00000130: 10a3 f8bd 6e50 213e 5473 b63d 2a9e 21bd
00000140: 6133 133c fe58 73bd d292 2d3d 6c82 563c
00000150: 8736 8a3d dacb 0cbe 28c6 dcbd ac72 8dbd
00000160: f17f 183d cd75 9ebd 996c 123e 0468 15bd
00000170: b07f 0d3c 5a50 c3bd 7622 08be 047d f4bd
00000180: 7f7e a43d 0e58 b6bd c747 af3c 7a1a 1ebe
00000190: ef04 4a3d 8677 62bc 93e6 c43d 5e41 093e
000001a0: 8d0c fdbd d6ea 003e f35a 6e3d 53bb f2bd
000001b0: 4255 23be 0127 e3bc 8e2d ac3d 5b3f eb3d
000001c0: bf1e fb3a f388 283d 5291 973c e529 823d
000001d0: 660e 00bd 83b7 0bbe b498 fbbc c93d a23b
000001e0: 8c54 9bbc 6539 18be f8e2 9e3d 6c5e e7bd
000001f0: 84c0 02be e7ae b03d 7b76 963d 0094 153e
00000200: 0129 2ebd a813 28be 6752 2abe 0585 a1bc
00000210: 4f18 c53d 839f 4e3c 6eb2 70be 5e99 e2bb
00000220: 007d 03bd dfe1 a63c ca70 273e 15fe 133e
00000230: 6672 95bc 767d c33d 7915 fc3d 483a 1f3e
00000240: 6fe5 0ebe 0846 573c cf9e e33c 9476 f93d
00000250: 1743 7b3c 7bb8 fb3c 4cab 92bd cb34 df3b
00000260: 663a 763c 9f41 333d 8b13 cd3d c5ec d6bd
00000270: 993f 6fbc b8a5 a5bd f53f 283e 2033 123d
00000280: 9f6c f2bd 9a97 8dbc 2217 54bc e56d a03c
00000290: c357 9dbc 013e 93bc d844 e73d b43a 3abd
000002a0: b9d2 f53c 50e7 0d3d 5238 033e b31e 513c
000002b0: c5d6 d4bd e6f3 a03c ce79 c8bc 0ebc 00be
000002c0: 627b 00be e1bf 5bbd 9199 0d3d 610c d73d
000002d0: c934 3cbe 4cfa bdbd 1daf 8a3d 21cb eb3c
000002e0: 0324 89ba d966 aebd 053c d5bd 548f cf3d
000002f0: 818e 023d ae9f 863c 96ed c73c d54e 0a3e
00000300: 4959 61bd 66a9 e83d f14a 513d cbd5 233e
00000310: ab3a 0bbe d73e 083e 9645 83bd 2c93 813d
00000320: 73e7 ecbc f207 e0bd 7738 753d 836a 853d
00000330: 0068 1c3e e166 f8bd e6bf a6bd 4387 7d3d
00000340: f91d d03d 8418 f13c 6214 b2bc 8a5f 52bd
00000350: 3d06 febd 8c1a 0fbe e51f a13c a1bf 4ebc
00000360: 888f f23c 65e6 1b3e 87e5 403c 4b5c 18be
00000370: 3da5 9d3d e75a d6bd 84f5 dbbd c426 92bb
00000380: b285 aabd 6c03 7bbc 19d5 47bd eeef fa3d
00000390: 1685 25be a769 d93d 38b8 09be 8066 b33d
000003a0: 5f97 5dbb e905 5a3d 040c bd3d 9157 05bc
000003b0: 7124 223e f688 153d eec9 cabc 9e79 10be
000003c0: 11bd 82bd 3bfe 1abe 9343 98bd 34af dc3d
000003d0: 8a29 06be fd1c c23d a79d a03d 7972 f73d
000003e0: 107a c83c e1e9 223e 8e52 feba 9add 25be
000003f0: f0a6 713e 0aa4 c2bd 2349 4b3d 80e3 153e

MatMul_2 f4 [1, 32]
0.24915317 -0.15635812 0.12742747 0.08826295 0.11647676 0.08578407 0.022568436 0.095938236
0.2077745 0.0012606679 -0.33686104 0.12952322 0.11438561 -0.33529153 0.15579055 0.2057969
-0.3412874 -0.3159974 -0.34252033 -0.32305133 0.02782887 -0.32787448 0.045082774 0.17632093
-0.13779418 0.18373276 0.1653118 -0.33392745 0.17904273 0.1170351 0.16813467 0.035639882
00000000: 0222 7f3e 581c 20be 597c 023e 35c3 b43d
00000010: 5e8b ee3d 8faf af3d 71e1 b83c 447b c43d
00000020: d7c2 543e ff3c a53a 0d79 acbe bca1 043e
00000030: 0143 ea3d 55ab abbe 8f87 1f3e 6cbc 523e
00000040: 39bd aebe 69ca a1be d35e afbe fc66 a5be
00000050: 5ff9 e33c 2adf a7be b7a8 383d 798d 343e
00000060: eb19 0dbe 7124 3c3e 7f47 293e 8af8 aabe
00000070: fa56 373e 19b0 ef3d 7f2b 2c3e 20fb 113d
